Using device: cuda
Autoencoder Model Summary
----------------------------------------------------------------
        Layer (type)               Output Shape         Param #
================================================================
           Flatten-1                  [-1, 784]               0
            Linear-2                  [-1, 112]          87,920
              ReLU-3                  [-1, 112]               0
            Linear-4                   [-1, 56]           6,328
              ReLU-5                   [-1, 56]               0
            Linear-6                   [-1, 28]           1,596
              ReLU-7                   [-1, 28]               0
================================================================
Total params: 95,844
Trainable params: 95,844
Non-trainable params: 0
----------------------------------------------------------------
Input size (MB): 0.00
Forward/backward pass size (MB): 0.01
Params size (MB): 0.37
Estimated Total Size (MB): 0.38
----------------------------------------------------------------
----------------------------------------------------------------
        Layer (type)               Output Shape         Param #
================================================================
            Linear-1            [-1, 1, 28, 56]           1,624
              ReLU-2            [-1, 1, 28, 56]               0
            Linear-3           [-1, 1, 28, 112]           6,384
              ReLU-4           [-1, 1, 28, 112]               0
            Linear-5           [-1, 1, 28, 784]          88,592
           Sigmoid-6           [-1, 1, 28, 784]               0
================================================================
Total params: 96,600
Trainable params: 96,600
Non-trainable params: 0
----------------------------------------------------------------
Input size (MB): 0.00
Forward/backward pass size (MB): 0.41
Params size (MB): 0.37
Estimated Total Size (MB): 0.78
----------------------------------------------------------------
UNet Model Summary
