Using device: cuda
Autoencoder Model Summary
----------------------------------------------------------------
        Layer (type)               Output Shape         Param #
================================================================
           Flatten-1                  [-1, 784]               0
            Linear-2                  [-1, 112]          87,920
              ReLU-3                  [-1, 112]               0
            Linear-4                   [-1, 56]           6,328
              ReLU-5                   [-1, 56]               0
            Linear-6                   [-1, 28]           1,596
              ReLU-7                   [-1, 28]               0
================================================================
Total params: 95,844
Trainable params: 95,844
Non-trainable params: 0
----------------------------------------------------------------
Input size (MB): 0.00
Forward/backward pass size (MB): 0.01
Params size (MB): 0.37
Estimated Total Size (MB): 0.38
----------------------------------------------------------------
----------------------------------------------------------------
        Layer (type)               Output Shape         Param #
================================================================
            Linear-1            [-1, 1, 28, 56]           1,624
              ReLU-2            [-1, 1, 28, 56]               0
            Linear-3           [-1, 1, 28, 112]           6,384
              ReLU-4           [-1, 1, 28, 112]               0
            Linear-5           [-1, 1, 28, 784]          88,592
           Sigmoid-6           [-1, 1, 28, 784]               0
================================================================
Total params: 96,600
Trainable params: 96,600
Non-trainable params: 0
----------------------------------------------------------------
Input size (MB): 0.00
Forward/backward pass size (MB): 0.41
Params size (MB): 0.37
Estimated Total Size (MB): 0.78
----------------------------------------------------------------

UNet Model Summary
----------------------------------------------------------------
        Layer (type)               Output Shape         Param #
================================================================
            Conv2d-1            [-1, 4, 28, 28]              40
       BatchNorm2d-2            [-1, 4, 28, 28]               8
              ReLU-3            [-1, 4, 28, 28]               0
            Conv2d-4            [-1, 4, 28, 28]             148
       BatchNorm2d-5            [-1, 4, 28, 28]               8
              ReLU-6            [-1, 4, 28, 28]               0
         MaxPool2d-7            [-1, 4, 14, 14]               0
            Conv2d-8            [-1, 8, 14, 14]             296
       BatchNorm2d-9            [-1, 8, 14, 14]              16
             ReLU-10            [-1, 8, 14, 14]               0
           Conv2d-11            [-1, 8, 14, 14]             584
      BatchNorm2d-12            [-1, 8, 14, 14]              16
             ReLU-13            [-1, 8, 14, 14]               0
        MaxPool2d-14              [-1, 8, 7, 7]               0
           Conv2d-15             [-1, 16, 7, 7]           1,168
      BatchNorm2d-16             [-1, 16, 7, 7]              32
             ReLU-17             [-1, 16, 7, 7]               0
           Conv2d-18             [-1, 16, 7, 7]           2,320
      BatchNorm2d-19             [-1, 16, 7, 7]              32
             ReLU-20             [-1, 16, 7, 7]               0
        MaxPool2d-21             [-1, 16, 3, 3]               0
           Conv2d-22             [-1, 32, 3, 3]           4,640
      BatchNorm2d-23             [-1, 32, 3, 3]              64
             ReLU-24             [-1, 32, 3, 3]               0
           Conv2d-25             [-1, 32, 3, 3]           9,248
      BatchNorm2d-26             [-1, 32, 3, 3]              64
             ReLU-27             [-1, 32, 3, 3]               0
  ConvTranspose2d-28             [-1, 16, 7, 7]           2,064
           Conv2d-29             [-1, 16, 7, 7]           4,624
      BatchNorm2d-30             [-1, 16, 7, 7]              32
             ReLU-31             [-1, 16, 7, 7]               0
           Conv2d-32             [-1, 16, 7, 7]           2,320
      BatchNorm2d-33             [-1, 16, 7, 7]              32
             ReLU-34             [-1, 16, 7, 7]               0
  ConvTranspose2d-35            [-1, 8, 14, 14]             520
           Conv2d-36            [-1, 8, 14, 14]           1,160
      BatchNorm2d-37            [-1, 8, 14, 14]              16
             ReLU-38            [-1, 8, 14, 14]               0
           Conv2d-39            [-1, 8, 14, 14]             584
      BatchNorm2d-40            [-1, 8, 14, 14]              16
             ReLU-41            [-1, 8, 14, 14]               0
  ConvTranspose2d-42            [-1, 4, 28, 28]             132
           Conv2d-43            [-1, 4, 28, 28]             292
      BatchNorm2d-44            [-1, 4, 28, 28]               8
             ReLU-45            [-1, 4, 28, 28]               0
           Conv2d-46            [-1, 4, 28, 28]             148
      BatchNorm2d-47            [-1, 4, 28, 28]               8
             ReLU-48            [-1, 4, 28, 28]               0
           Conv2d-49            [-1, 1, 28, 28]              37
          Sigmoid-50            [-1, 1, 28, 28]               0
================================================================
Total params: 30,677
Trainable params: 30,677
Non-trainable params: 0
----------------------------------------------------------------
Input size (MB): 0.00
Forward/backward pass size (MB): 0.58
Params size (MB): 0.12
Estimated Total Size (MB): 0.70
----------------------------------------------------------------

